mkdir: cannot create directory ‘expr’: File exists
Random Seed:  4538
using crnn 2 model
Namespace(adadelta=True, adam=False, batchSize=64, beta1=0.9, crnn='', cuda=True, displayInterval=50, experiment='expr', imgH=32, imgW=512, keep_ratio=False, lr=0.0001, manualSeed=4538, n_test_disp=5, ngpu=1, nh=263, niter=25, random_sample=True, saveInterval=10000, trainroot='../train_online/', valInterval=500, valroot='../val_online/', workers=6)
CRNN (
  (relu): ReLU ()
  (conv1a): Conv2d(1, 6, kernel_size=(1, 3), stride=(1, 1), padding=(0, 1))
  (bn1a): BatchNorm2d(6, eps=1e-05, momentum=0.1, affine=True)
  (mp1a): MaxPool2d (size=(1, 3), stride=(1, 2), dilation=(1, 1))
  (conv2a): Conv2d(6, 16, kernel_size=(2, 3), stride=(1, 1))
  (bn2a): BatchNorm2d(16, eps=1e-05, momentum=0.1, affine=True)
  (mp2a): MaxPool2d (size=(1, 3), stride=(1, 2), dilation=(1, 1))
  (cnn): Sequential (
    (conv0): Conv2d(1, 64, kernel_size=(3, 3), stride=(1, 1), padding=(1, 1))
    (relu0): ReLU (inplace)
    (pooling0): MaxPool2d (size=(2, 2), stride=(2, 2), dilation=(1, 1))
    (conv1): Conv2d(64, 128, kernel_size=(3, 3), stride=(1, 1), padding=(1, 1))
    (relu1): ReLU (inplace)
    (pooling1): MaxPool2d (size=(2, 2), stride=(2, 2), dilation=(1, 1))
    (conv2): Conv2d(128, 256, kernel_size=(3, 3), stride=(1, 1), padding=(1, 1))
    (batchnorm2): BatchNorm2d(256, eps=1e-05, momentum=0.1, affine=True)
    (relu2): ReLU (inplace)
    (conv3): Conv2d(256, 256, kernel_size=(3, 3), stride=(1, 1), padding=(1, 1))
    (relu3): ReLU (inplace)
    (pooling2): MaxPool2d (size=(2, 2), stride=(2, 1), dilation=(1, 1))
    (conv4): Conv2d(256, 512, kernel_size=(3, 3), stride=(1, 1), padding=(1, 1))
    (batchnorm4): BatchNorm2d(512, eps=1e-05, momentum=0.1, affine=True)
    (relu4): ReLU (inplace)
    (conv5): Conv2d(512, 512, kernel_size=(3, 3), stride=(1, 1), padding=(1, 1))
    (relu5): ReLU (inplace)
    (pooling3): MaxPool2d (size=(2, 2), stride=(2, 1), dilation=(1, 1))
    (conv6): Conv2d(512, 512, kernel_size=(2, 2), stride=(1, 1))
    (batchnorm6): BatchNorm2d(512, eps=1e-05, momentum=0.1, affine=True)
    (relu6): ReLU (inplace)
  )
  (rnn): Sequential (
    (0): BidirectionalLSTM (
      (rnn): LSTM(528, 263, bidirectional=True)
      (embedding): Linear (526 -> 263)
    )
    (1): BidirectionalLSTM (
      (rnn): LSTM(263, 263, bidirectional=True)
      (embedding): Linear (526 -> 112)
    )
  )
)
[0/25][50/4454] Loss: 58.381874
[0/25][100/4454] Loss: 39.105283
…
