mkdir: cannot create directory ‘expr’: File exists
Random Seed:  2834
using combcrnn model
Namespace(adadelta=True, adam=False, batchSize=64, beta1=0.9, crnn='', cuda=True, displayInterval=100, experiment='expr', imgH=32, imgW=512, keep_ratio=False, lr=0.0001, manualSeed=2834, n_test_disp=5, ngpu=1, nh=256, niter=25, random_sample=True, saveInterval=10000, trainroot='../train_online/', valInterval=4000, valroot='../val_online/', workers=6)
CRNN (
  (relu): ReLU ()
  (conv1a): Conv2d(1, 6, kernel_size=(1, 3), stride=(1, 1), padding=(0, 1))
  (bn1a): BatchNorm2d(6, eps=1e-05, momentum=0.1, affine=True)
  (mp1a): MaxPool2d (size=(1, 3), stride=(1, 2), dilation=(1, 1))
  (conv2a): Conv2d(6, 16, kernel_size=(2, 3), stride=(1, 1))
  (bn2a): BatchNorm2d(16, eps=1e-05, momentum=0.1, affine=True)
  (mp2a): MaxPool2d (size=(1, 3), stride=(1, 2), dilation=(1, 1))
  (conv1b): Conv2d(1, 6, kernel_size=(1, 3), stride=(1, 1), padding=(0, 1))
  (bn1b): BatchNorm2d(6, eps=1e-05, momentum=0.1, affine=True)
  (mp1b): MaxPool2d (size=(1, 3), stride=(1, 2), dilation=(1, 1))
  (conv2b): Conv2d(6, 16, kernel_size=(2, 3), stride=(1, 1), padding=(0, 1))
  (bn2b): BatchNorm2d(16, eps=1e-05, momentum=0.1, affine=True)
  (mp2b): MaxPool2d (size=(1, 3), stride=(1, 2), dilation=(1, 1))
  (conv0): Conv2d(1, 64, kernel_size=(3, 3), stride=(1, 1), padding=(1, 1))
  (mp0): MaxPool2d (size=(2, 2), stride=(2, 2), dilation=(1, 1))
  (conv1): Conv2d(64, 128, kernel_size=(3, 3), stride=(1, 1), padding=(1, 1))
  (mp1): MaxPool2d (size=(2, 2), stride=(2, 2), dilation=(1, 1))
  (conv2): Conv2d(128, 256, kernel_size=(3, 3), stride=(1, 1), padding=(1, 1))
  (bn2): BatchNorm2d(256, eps=1e-05, momentum=0.1, affine=True)
  (conv3): Conv2d(256, 256, kernel_size=(3, 3), stride=(1, 1), padding=(1, 1))
  (mp3): MaxPool2d (size=(2, 2), stride=(2, 1), dilation=(1, 1))
  (conv4): Conv2d(260, 512, kernel_size=(3, 3), stride=(1, 1), padding=(1, 1))
  (bn4): BatchNorm2d(512, eps=1e-05, momentum=0.1, affine=True)
  (conv5): Conv2d(512, 512, kernel_size=(3, 3), stride=(1, 1), padding=(1, 1))
  (mp5): MaxPool2d (size=(2, 2), stride=(2, 1), dilation=(1, 1))
  (conv6): Conv2d(520, 520, kernel_size=(2, 2), stride=(1, 1))
  (bn6): BatchNorm2d(520, eps=1e-05, momentum=0.1, affine=True)
  (rnn): Sequential (
    (0): BidirectionalLSTM (
      (rnn): LSTM(520, 256, bidirectional=True)
      (embedding): Linear (512 -> 256)
    )
    (1): BidirectionalLSTM (
      (rnn): LSTM(256, 256, bidirectional=True)
      (embedding): Linear (512 -> 112)
    )
  )
)
[0/25][100/4454] Loss: 49.859831
[0/25][200/4454] Loss: 38.280805
[0/25][300/4454] Loss: 37.260769
…
